cuda:0
Super_EfficientNet(
  (pool): AdaptiveAvgPool2d(output_size=1)
  (features): Sequential(
    (0): Activation(
      (silu): SiLU()
    )
    (1): CNNBlock(
      (cnn): Conv2d(504, 32, kernel_size=(3, 3), stride=(2, 2), padding=(1, 1), bias=False)
      (bn): BatchNorm2d(32, eps=1e-05, momentum=0.1, affine=True, track_running_stats=True)
      (silu): SiLU()
    )
    (2): InvertedResidualBlock(
      (conv): Sequential(
        (0): CNNBlock(
          (cnn): Conv2d(32, 32, kernel_size=(3, 3), stride=(1, 1), padding=(1, 1), groups=32, bias=False)
          (bn): BatchNorm2d(32, eps=1e-05, momentum=0.1, affine=True, track_running_stats=True)
          (silu): SiLU()
        )
        (1): SqueezeExcitation(
          (se): Sequential(
            (0): AdaptiveAvgPool2d(output_size=1)
            (1): Conv2d(32, 8, kernel_size=(1, 1), stride=(1, 1))
            (2): SiLU()
            (3): Conv2d(8, 32, kernel_size=(1, 1), stride=(1, 1))
            (4): Sigmoid()
          )
        )
        (2): Conv2d(32, 16, kernel_size=(1, 1), stride=(1, 1), bias=False)
        (3): BatchNorm2d(16, eps=1e-05, momentum=0.1, affine=True, track_running_stats=True)
      )
    )
    (3): InvertedResidualBlock(
      (expand_conv): CNNBlock(
        (cnn): Conv2d(16, 96, kernel_size=(3, 3), stride=(1, 1), padding=(1, 1), bias=False)
        (bn): BatchNorm2d(96, eps=1e-05, momentum=0.1, affine=True, track_running_stats=True)
        (silu): SiLU()
      )
      (conv): Sequential(
        (0): CNNBlock(
          (cnn): Conv2d(96, 96, kernel_size=(3, 3), stride=(2, 2), padding=(1, 1), groups=96, bias=False)
          (bn): BatchNorm2d(96, eps=1e-05, momentum=0.1, affine=True, track_running_stats=True)
          (silu): SiLU()
        )
        (1): SqueezeExcitation(
          (se): Sequential(
            (0): AdaptiveAvgPool2d(output_size=1)
            (1): Conv2d(96, 4, kernel_size=(1, 1), stride=(1, 1))
            (2): SiLU()
            (3): Conv2d(4, 96, kernel_size=(1, 1), stride=(1, 1))
            (4): Sigmoid()
          )
        )
        (2): Conv2d(96, 24, kernel_size=(1, 1), stride=(1, 1), bias=False)
        (3): BatchNorm2d(24, eps=1e-05, momentum=0.1, affine=True, track_running_stats=True)
      )
    )
    (4): InvertedResidualBlock(
      (expand_conv): CNNBlock(
        (cnn): Conv2d(24, 144, kernel_size=(3, 3), stride=(1, 1), padding=(1, 1), bias=False)
        (bn): BatchNorm2d(144, eps=1e-05, momentum=0.1, affine=True, track_running_stats=True)
        (silu): SiLU()
      )
      (conv): Sequential(
        (0): CNNBlock(
          (cnn): Conv2d(144, 144, kernel_size=(3, 3), stride=(1, 1), padding=(1, 1), groups=144, bias=False)
          (bn): BatchNorm2d(144, eps=1e-05, momentum=0.1, affine=True, track_running_stats=True)
          (silu): SiLU()
        )
        (1): SqueezeExcitation(
          (se): Sequential(
            (0): AdaptiveAvgPool2d(output_size=1)
            (1): Conv2d(144, 6, kernel_size=(1, 1), stride=(1, 1))
            (2): SiLU()
            (3): Conv2d(6, 144, kernel_size=(1, 1), stride=(1, 1))
            (4): Sigmoid()
          )
        )
        (2): Conv2d(144, 24, kernel_size=(1, 1), stride=(1, 1), bias=False)
        (3): BatchNorm2d(24, eps=1e-05, momentum=0.1, affine=True, track_running_stats=True)
      )
    )
    (5): InvertedResidualBlock(
      (expand_conv): CNNBlock(
        (cnn): Conv2d(24, 144, kernel_size=(3, 3), stride=(1, 1), padding=(1, 1), bias=False)
        (bn): BatchNorm2d(144, eps=1e-05, momentum=0.1, affine=True, track_running_stats=True)
        (silu): SiLU()
      )
      (conv): Sequential(
        (0): CNNBlock(
          (cnn): Conv2d(144, 144, kernel_size=(5, 5), stride=(2, 2), padding=(2, 2), groups=144, bias=False)
          (bn): BatchNorm2d(144, eps=1e-05, momentum=0.1, affine=True, track_running_stats=True)
          (silu): SiLU()
        )
        (1): SqueezeExcitation(
          (se): Sequential(
            (0): AdaptiveAvgPool2d(output_size=1)
            (1): Conv2d(144, 6, kernel_size=(1, 1), stride=(1, 1))
            (2): SiLU()
            (3): Conv2d(6, 144, kernel_size=(1, 1), stride=(1, 1))
            (4): Sigmoid()
          )
        )
        (2): Conv2d(144, 40, kernel_size=(1, 1), stride=(1, 1), bias=False)
        (3): BatchNorm2d(40, eps=1e-05, momentum=0.1, affine=True, track_running_stats=True)
      )
    )
    (6): InvertedResidualBlock(
      (expand_conv): CNNBlock(
        (cnn): Conv2d(40, 240, kernel_size=(3, 3), stride=(1, 1), padding=(1, 1), bias=False)
        (bn): BatchNorm2d(240, eps=1e-05, momentum=0.1, affine=True, track_running_stats=True)
        (silu): SiLU()
      )
      (conv): Sequential(
        (0): CNNBlock(
          (cnn): Conv2d(240, 240, kernel_size=(5, 5), stride=(1, 1), padding=(2, 2), groups=240, bias=False)
          (bn): BatchNorm2d(240, eps=1e-05, momentum=0.1, affine=True, track_running_stats=True)
          (silu): SiLU()
        )
        (1): SqueezeExcitation(
          (se): Sequential(
            (0): AdaptiveAvgPool2d(output_size=1)
            (1): Conv2d(240, 10, kernel_size=(1, 1), stride=(1, 1))
            (2): SiLU()
            (3): Conv2d(10, 240, kernel_size=(1, 1), stride=(1, 1))
            (4): Sigmoid()
          )
        )
        (2): Conv2d(240, 40, kernel_size=(1, 1), stride=(1, 1), bias=False)
        (3): BatchNorm2d(40, eps=1e-05, momentum=0.1, affine=True, track_running_stats=True)
      )
    )
    (7): InvertedResidualBlock(
      (expand_conv): CNNBlock(
        (cnn): Conv2d(40, 240, kernel_size=(3, 3), stride=(1, 1), padding=(1, 1), bias=False)
        (bn): BatchNorm2d(240, eps=1e-05, momentum=0.1, affine=True, track_running_stats=True)
        (silu): SiLU()
      )
      (conv): Sequential(
        (0): CNNBlock(
          (cnn): Conv2d(240, 240, kernel_size=(3, 3), stride=(2, 2), padding=(1, 1), groups=240, bias=False)
          (bn): BatchNorm2d(240, eps=1e-05, momentum=0.1, affine=True, track_running_stats=True)
          (silu): SiLU()
        )
        (1): SqueezeExcitation(
          (se): Sequential(
            (0): AdaptiveAvgPool2d(output_size=1)
            (1): Conv2d(240, 10, kernel_size=(1, 1), stride=(1, 1))
            (2): SiLU()
            (3): Conv2d(10, 240, kernel_size=(1, 1), stride=(1, 1))
            (4): Sigmoid()
          )
        )
        (2): Conv2d(240, 80, kernel_size=(1, 1), stride=(1, 1), bias=False)
        (3): BatchNorm2d(80, eps=1e-05, momentum=0.1, affine=True, track_running_stats=True)
      )
    )
    (8): InvertedResidualBlock(
      (expand_conv): CNNBlock(
        (cnn): Conv2d(80, 480, kernel_size=(3, 3), stride=(1, 1), padding=(1, 1), bias=False)
        (bn): BatchNorm2d(480, eps=1e-05, momentum=0.1, affine=True, track_running_stats=True)
        (silu): SiLU()
      )
      (conv): Sequential(
        (0): CNNBlock(
          (cnn): Conv2d(480, 480, kernel_size=(3, 3), stride=(1, 1), padding=(1, 1), groups=480, bias=False)
          (bn): BatchNorm2d(480, eps=1e-05, momentum=0.1, affine=True, track_running_stats=True)
          (silu): SiLU()
        )
        (1): SqueezeExcitation(
          (se): Sequential(
            (0): AdaptiveAvgPool2d(output_size=1)
            (1): Conv2d(480, 20, kernel_size=(1, 1), stride=(1, 1))
            (2): SiLU()
            (3): Conv2d(20, 480, kernel_size=(1, 1), stride=(1, 1))
            (4): Sigmoid()
          )
        )
        (2): Conv2d(480, 80, kernel_size=(1, 1), stride=(1, 1), bias=False)
        (3): BatchNorm2d(80, eps=1e-05, momentum=0.1, affine=True, track_running_stats=True)
      )
    )
    (9): InvertedResidualBlock(
      (expand_conv): CNNBlock(
        (cnn): Conv2d(80, 480, kernel_size=(3, 3), stride=(1, 1), padding=(1, 1), bias=False)
        (bn): BatchNorm2d(480, eps=1e-05, momentum=0.1, affine=True, track_running_stats=True)
        (silu): SiLU()
      )
      (conv): Sequential(
        (0): CNNBlock(
          (cnn): Conv2d(480, 480, kernel_size=(3, 3), stride=(1, 1), padding=(1, 1), groups=480, bias=False)
          (bn): BatchNorm2d(480, eps=1e-05, momentum=0.1, affine=True, track_running_stats=True)
          (silu): SiLU()
        )
        (1): SqueezeExcitation(
          (se): Sequential(
            (0): AdaptiveAvgPool2d(output_size=1)
            (1): Conv2d(480, 20, kernel_size=(1, 1), stride=(1, 1))
            (2): SiLU()
            (3): Conv2d(20, 480, kernel_size=(1, 1), stride=(1, 1))
            (4): Sigmoid()
          )
        )
        (2): Conv2d(480, 80, kernel_size=(1, 1), stride=(1, 1), bias=False)
        (3): BatchNorm2d(80, eps=1e-05, momentum=0.1, affine=True, track_running_stats=True)
      )
    )
    (10): InvertedResidualBlock(
      (expand_conv): CNNBlock(
        (cnn): Conv2d(80, 480, kernel_size=(3, 3), stride=(1, 1), padding=(1, 1), bias=False)
        (bn): BatchNorm2d(480, eps=1e-05, momentum=0.1, affine=True, track_running_stats=True)
        (silu): SiLU()
      )
      (conv): Sequential(
        (0): CNNBlock(
          (cnn): Conv2d(480, 480, kernel_size=(5, 5), stride=(1, 1), padding=(2, 2), groups=480, bias=False)
          (bn): BatchNorm2d(480, eps=1e-05, momentum=0.1, affine=True, track_running_stats=True)
          (silu): SiLU()
        )
        (1): SqueezeExcitation(
          (se): Sequential(
            (0): AdaptiveAvgPool2d(output_size=1)
            (1): Conv2d(480, 20, kernel_size=(1, 1), stride=(1, 1))
            (2): SiLU()
            (3): Conv2d(20, 480, kernel_size=(1, 1), stride=(1, 1))
            (4): Sigmoid()
          )
        )
        (2): Conv2d(480, 112, kernel_size=(1, 1), stride=(1, 1), bias=False)
        (3): BatchNorm2d(112, eps=1e-05, momentum=0.1, affine=True, track_running_stats=True)
      )
    )
    (11): InvertedResidualBlock(
      (expand_conv): CNNBlock(
        (cnn): Conv2d(112, 672, kernel_size=(3, 3), stride=(1, 1), padding=(1, 1), bias=False)
        (bn): BatchNorm2d(672, eps=1e-05, momentum=0.1, affine=True, track_running_stats=True)
        (silu): SiLU()
      )
      (conv): Sequential(
        (0): CNNBlock(
          (cnn): Conv2d(672, 672, kernel_size=(5, 5), stride=(1, 1), padding=(2, 2), groups=672, bias=False)
          (bn): BatchNorm2d(672, eps=1e-05, momentum=0.1, affine=True, track_running_stats=True)
          (silu): SiLU()
        )
        (1): SqueezeExcitation(
          (se): Sequential(
            (0): AdaptiveAvgPool2d(output_size=1)
            (1): Conv2d(672, 28, kernel_size=(1, 1), stride=(1, 1))
            (2): SiLU()
            (3): Conv2d(28, 672, kernel_size=(1, 1), stride=(1, 1))
            (4): Sigmoid()
          )
        )
        (2): Conv2d(672, 112, kernel_size=(1, 1), stride=(1, 1), bias=False)
        (3): BatchNorm2d(112, eps=1e-05, momentum=0.1, affine=True, track_running_stats=True)
      )
    )
    (12): InvertedResidualBlock(
      (expand_conv): CNNBlock(
        (cnn): Conv2d(112, 672, kernel_size=(3, 3), stride=(1, 1), padding=(1, 1), bias=False)
        (bn): BatchNorm2d(672, eps=1e-05, momentum=0.1, affine=True, track_running_stats=True)
        (silu): SiLU()
      )
      (conv): Sequential(
        (0): CNNBlock(
          (cnn): Conv2d(672, 672, kernel_size=(5, 5), stride=(1, 1), padding=(2, 2), groups=672, bias=False)
          (bn): BatchNorm2d(672, eps=1e-05, momentum=0.1, affine=True, track_running_stats=True)
          (silu): SiLU()
        )
        (1): SqueezeExcitation(
          (se): Sequential(
            (0): AdaptiveAvgPool2d(output_size=1)
            (1): Conv2d(672, 28, kernel_size=(1, 1), stride=(1, 1))
            (2): SiLU()
            (3): Conv2d(28, 672, kernel_size=(1, 1), stride=(1, 1))
            (4): Sigmoid()
          )
        )
        (2): Conv2d(672, 112, kernel_size=(1, 1), stride=(1, 1), bias=False)
        (3): BatchNorm2d(112, eps=1e-05, momentum=0.1, affine=True, track_running_stats=True)
      )
    )
    (13): InvertedResidualBlock(
      (expand_conv): CNNBlock(
        (cnn): Conv2d(112, 672, kernel_size=(3, 3), stride=(1, 1), padding=(1, 1), bias=False)
        (bn): BatchNorm2d(672, eps=1e-05, momentum=0.1, affine=True, track_running_stats=True)
        (silu): SiLU()
      )
      (conv): Sequential(
        (0): CNNBlock(
          (cnn): Conv2d(672, 672, kernel_size=(5, 5), stride=(2, 2), padding=(2, 2), groups=672, bias=False)
          (bn): BatchNorm2d(672, eps=1e-05, momentum=0.1, affine=True, track_running_stats=True)
          (silu): SiLU()
        )
        (1): SqueezeExcitation(
          (se): Sequential(
            (0): AdaptiveAvgPool2d(output_size=1)
            (1): Conv2d(672, 28, kernel_size=(1, 1), stride=(1, 1))
            (2): SiLU()
            (3): Conv2d(28, 672, kernel_size=(1, 1), stride=(1, 1))
            (4): Sigmoid()
          )
        )
        (2): Conv2d(672, 192, kernel_size=(1, 1), stride=(1, 1), bias=False)
        (3): BatchNorm2d(192, eps=1e-05, momentum=0.1, affine=True, track_running_stats=True)
      )
    )
    (14): InvertedResidualBlock(
      (expand_conv): CNNBlock(
        (cnn): Conv2d(192, 1152, kernel_size=(3, 3), stride=(1, 1), padding=(1, 1), bias=False)
        (bn): BatchNorm2d(1152, eps=1e-05, momentum=0.1, affine=True, track_running_stats=True)
        (silu): SiLU()
      )
      (conv): Sequential(
        (0): CNNBlock(
          (cnn): Conv2d(1152, 1152, kernel_size=(5, 5), stride=(1, 1), padding=(2, 2), groups=1152, bias=False)
          (bn): BatchNorm2d(1152, eps=1e-05, momentum=0.1, affine=True, track_running_stats=True)
          (silu): SiLU()
        )
        (1): SqueezeExcitation(
          (se): Sequential(
            (0): AdaptiveAvgPool2d(output_size=1)
            (1): Conv2d(1152, 48, kernel_size=(1, 1), stride=(1, 1))
            (2): SiLU()
            (3): Conv2d(48, 1152, kernel_size=(1, 1), stride=(1, 1))
            (4): Sigmoid()
          )
        )
        (2): Conv2d(1152, 192, kernel_size=(1, 1), stride=(1, 1), bias=False)
        (3): BatchNorm2d(192, eps=1e-05, momentum=0.1, affine=True, track_running_stats=True)
      )
    )
    (15): InvertedResidualBlock(
      (expand_conv): CNNBlock(
        (cnn): Conv2d(192, 1152, kernel_size=(3, 3), stride=(1, 1), padding=(1, 1), bias=False)
        (bn): BatchNorm2d(1152, eps=1e-05, momentum=0.1, affine=True, track_running_stats=True)
        (silu): SiLU()
      )
      (conv): Sequential(
        (0): CNNBlock(
          (cnn): Conv2d(1152, 1152, kernel_size=(5, 5), stride=(1, 1), padding=(2, 2), groups=1152, bias=False)
          (bn): BatchNorm2d(1152, eps=1e-05, momentum=0.1, affine=True, track_running_stats=True)
          (silu): SiLU()
        )
        (1): SqueezeExcitation(
          (se): Sequential(
            (0): AdaptiveAvgPool2d(output_size=1)
            (1): Conv2d(1152, 48, kernel_size=(1, 1), stride=(1, 1))
            (2): SiLU()
            (3): Conv2d(48, 1152, kernel_size=(1, 1), stride=(1, 1))
            (4): Sigmoid()
          )
        )
        (2): Conv2d(1152, 192, kernel_size=(1, 1), stride=(1, 1), bias=False)
        (3): BatchNorm2d(192, eps=1e-05, momentum=0.1, affine=True, track_running_stats=True)
      )
    )
    (16): InvertedResidualBlock(
      (expand_conv): CNNBlock(
        (cnn): Conv2d(192, 1152, kernel_size=(3, 3), stride=(1, 1), padding=(1, 1), bias=False)
        (bn): BatchNorm2d(1152, eps=1e-05, momentum=0.1, affine=True, track_running_stats=True)
        (silu): SiLU()
      )
      (conv): Sequential(
        (0): CNNBlock(
          (cnn): Conv2d(1152, 1152, kernel_size=(5, 5), stride=(1, 1), padding=(2, 2), groups=1152, bias=False)
          (bn): BatchNorm2d(1152, eps=1e-05, momentum=0.1, affine=True, track_running_stats=True)
          (silu): SiLU()
        )
        (1): SqueezeExcitation(
          (se): Sequential(
            (0): AdaptiveAvgPool2d(output_size=1)
            (1): Conv2d(1152, 48, kernel_size=(1, 1), stride=(1, 1))
            (2): SiLU()
            (3): Conv2d(48, 1152, kernel_size=(1, 1), stride=(1, 1))
            (4): Sigmoid()
          )
        )
        (2): Conv2d(1152, 192, kernel_size=(1, 1), stride=(1, 1), bias=False)
        (3): BatchNorm2d(192, eps=1e-05, momentum=0.1, affine=True, track_running_stats=True)
      )
    )
    (17): InvertedResidualBlock(
      (expand_conv): CNNBlock(
        (cnn): Conv2d(192, 1152, kernel_size=(3, 3), stride=(1, 1), padding=(1, 1), bias=False)
        (bn): BatchNorm2d(1152, eps=1e-05, momentum=0.1, affine=True, track_running_stats=True)
        (silu): SiLU()
      )
      (conv): Sequential(
        (0): CNNBlock(
          (cnn): Conv2d(1152, 1152, kernel_size=(3, 3), stride=(1, 1), padding=(1, 1), groups=1152, bias=False)
          (bn): BatchNorm2d(1152, eps=1e-05, momentum=0.1, affine=True, track_running_stats=True)
          (silu): SiLU()
        )
        (1): SqueezeExcitation(
          (se): Sequential(
            (0): AdaptiveAvgPool2d(output_size=1)
            (1): Conv2d(1152, 48, kernel_size=(1, 1), stride=(1, 1))
            (2): SiLU()
            (3): Conv2d(48, 1152, kernel_size=(1, 1), stride=(1, 1))
            (4): Sigmoid()
          )
        )
        (2): Conv2d(1152, 320, kernel_size=(1, 1), stride=(1, 1), bias=False)
        (3): BatchNorm2d(320, eps=1e-05, momentum=0.1, affine=True, track_running_stats=True)
      )
    )
    (18): CNNBlock(
      (cnn): Conv2d(320, 1280, kernel_size=(1, 1), stride=(1, 1), bias=False)
      (bn): BatchNorm2d(1280, eps=1e-05, momentum=0.1, affine=True, track_running_stats=True)
      (silu): SiLU()
    )
  )
  (classifier): Sequential(
    (0): Dropout(p=0.2, inplace=False)
    (1): Linear(in_features=1280, out_features=90, bias=True)
  )
)

------------------------------------------------------
epoch 1/300
Time taken for Training:  108.6154459
Train_Loss: 4.5484 Train_Acc: 0.0157
Test_Loss: 4.7116 Test_Acc: 0.0182

------------------------------------------------------
epoch 2/300
Time taken for Training:  105.94666649999999
Train_Loss: 4.4307 Train_Acc: 0.0157
Test_Loss: 4.3916 Test_Acc: 0.0215
…
